lab07/network.pkl (torch, 38927 bytes, 8 tensors)

weight f4 [9, 1, 5, 5]
0	0x3e5d8bc9	0.21635355
1	0x3e8f67dd	0.2800893
2	0x3e7fa1c2	0.2496405
3	0x3deb2344	0.11481336
4	0x3ea7d634	0.32780612
5	0x3e980382	0.29690176
6	0x3d470e9e	0.048597924
7	0x3d340a3d	0.043955076
8	0x3e826b20	0.25472355
9	0x3e04c279	0.1296481
10	0x3d32940b	0.043598216
11	0x3e98881e	0.2979135
12	0x3e6a9740	0.2290926
13	0x3e901574	0.28141367
14	0x3e9a10ed	0.30091038
15	0x3ceef3b3	0.02916894
16	0x3d989e24	0.07452038
17	0x3daf7524	0.08567265
18	0x3e927590	0.28605318
19	0xbc57c9f1	-0.013170705
20	0xbd9e1e3d	-0.07720611
21	0x3e3a1f04	0.18175894
22	0xbd455e2c	-0.048185512
23	0x3e99d397	0.30044243
24	0x3e17af45	0.14812954
25	0x3d00efc3	0.031478655
26	0x3ea8f82e	0.33001846
27	0x3e8e3ad8	0.2777927
28	0x3da2af3d	0.0794358
29	0x3ae81892	0.0017707518
30	0x3da9d01c	0.08291647
31	0x3e878a45	0.2647268
32	0x3dae13f7	0.08499902
33	0xbd04a453	-0.032383274
34	0x3e472c28	0.19450438
35	0x3e712c3b	0.23552029
36	0x3e44a138	0.19202125
37	0x3d8ad290	0.06778443
38	0x3e78eab6	0.24308285
39	0x3c76f4be	0.0150729995
40	0x3ce76285	0.02824522
41	0x3e808eac	0.2510885
42	0x3eac5867	0.33661196
43	0x3ea18b45	0.31551567
44	0x3e8de1ff	0.27711484
45	0x3dcbabe4	0.09944895
46	0x3e83660e	0.256638
47	0x3e5b9dc2	0.21446899
48	0xbc4ec1cf	-0.01261945
49	0x3e247104	0.16058737
50	0xbcaf177b	-0.021373501
51	0x3e0932be	0.13398263
52	0x3de6d1d6	0.11270492
53	0x3e93737e	0.2879905
54	0x3e846221	0.25856116
55	0x3e273bab	0.16331355
56	0x3e9ef3e1	0.3104544
57	0x3e87d20c	0.2652744
58	0x3e909146	0.28235835
59	0x3df27723	0.1183913
60	0x3e59bbf2	0.21263102
61	0x3e5ab49b	0.21357958
62	0x3d5d7f26	0.054076336
63	0x3ea67d24	0.3251735
64	0x3db584dc	0.088632315
65	0x3e90de29	0.28294495
66	0xbcfc8183	-0.030823475
67	0x3dac5c1f	0.08416008
68	0x3d314e8b	0.043287795
69	0x3e8fdd97	0.28098747
70	0x3e5b7aa8	0.21433508
71	0xbd71d13d	-0.059037436
72	0x3d5f6755	0.054541904
73	0x3e4bdc02	0.19908145
74	0x3e21c088	0.15796101
75	0x3dc5dfee	0.09661852
76	0x3eb359a5	0.3502933
77	0x3d5aece0	0.053448558
78	0xbdda4009	-0.10656745
79	0xbe07b3db	-0.13252203
80	0x3e7fbfff	0.24975584
81	0x3daf6b5a	0.085653976
82	0x3e06080d	0.13089009
83	0x3e843fd1	0.25829938
84	0xbd8d5d1a	-0.06902523
85	0x3eabdd2c	0.33567178
86	0x3d1937cc	0.037406728
87	0x3d91e60f	0.07123958
88	0x3d4bb497	0.04973277
89	0x3e743092	0.23846653
90	0x3eb791ff	0.35853574
91	0x3eb1be8c	0.34715688
92	0x3c1b1f65	0.009467934
93	0x3e8ac4b2	0.27103192
94	0xb9807cd1	-0.00024507058
95	0x3e1287b8	0.14309585
96	0x3e0d2fcf	0.13787769
97	0x3e01e1b4	0.12683755
98	0x3ea3b0c3	0.31970796
99	0x3e423595	0.18965752
100	0xbd3b8ab0	-0.04578656
101	0xbe8eda68	-0.27901006
102	0x3cbda41f	0.023149548
103	0xbe9f5e0a	-0.31126434
104	0xbe1d1531	-0.15340115
105	0xbe5070ad	-0.20355482
106	0xbe11837a	-0.1421031
107	0xbd8f6a16	-0.07002656
108	0xbd2bbbcd	-0.041927148
109	0x3d860369	0.06543619
110	0x3df54567	0.11976128
111	0xbe612df0	-0.2199018
112	0xbe2ffaee	-0.17185566
113	0x3d81ff55	0.06347529
114	0xbd5871fa	-0.05284307
115	0x3da5d2a9	0.08096821
116	0xbe30265b	-0.17202131
117	0xbd28235f	-0.041049358
118	0xba194a6b	-0.0005847576
119	0x3ea91e37	0.33030865
120	0x3e2f577e	0.1712322
121	0x3d8884b3	0.06665935
122	0x3e55e711	0.20888926
123	0x3cd823fa	0.026384342
124	0x3eaa70e5	0.33289257
125	0x3e0bdba6	0.13658008
126	0x3e4b79dc	0.19870704
127	0x3c1d12bc	0.009586986
128	0x3e6b39c6	0.22971258
129	0x3e8eeecc	0.27916563
130	0xbce7cbc2	-0.028295401
131	0x3e939722	0.28826243
132	0x3ea05dc7	0.31321546
133	0x3e9d7efd	0.30760947
134	0x3d4a1c1e	0.04934322
135	0x3e94c939	0.2905977
136	0x3dca64de	0.0988252
137	0x3e894fba	0.2681864
138	0x3e3042b2	0.17212942
139	0x3dbd8dae	0.09255539
140	0x3e924125	0.28565326
141	0x3e693d30	0.22777247
142	0x3e593fc9	0.21215738
143	0x3e9ba81b	0.30401692
144	0x3cfc859b	0.030825427
145	0x3e8a6ad4	0.27034628
146	0x3b1ba331	0.0023748393
147	0x3e9ee96c	0.31037462
148	0x3e865a86	0.2624094
149	0x3e26d12a	0.16290727
150	0xbe0ac0f7	-0.13550173
151	0xbe85711d	-0.2606286
152	0x3dbfca73	0.09364786
153	0x3c99e10d	0.01878407
154	0xbdf9804e	-0.12182675
155	0x3d5c924c	0.053850457
156	0x3ce72ab5	0.028218606
157	0xbe326c0f	-0.17424034
158	0xbd587760	-0.05284822
159	0x3d94658e	0.072459325
160	0xbd236071	-0.039886896
161	0x3e1e52da	0.15461293
162	0x3e872d6e	0.26401848
163	0xbd18ec72	-0.037334867
164	0xbcb13db9	-0.021635877
165	0x3d37273a	0.044715144
166	0x3e9b8eaa	0.30382282
167	0x3e3f2426	0.18666133
168	0x3e1d0afd	0.15336223
169	0x3d9fb9f9	0.07799143
170	0x3e0a9c14	0.13536102
171	0x3e6a8755	0.22903188
172	0x3e29c342	0.16578391
173	0x3ea38f96	0.31945485
174	0x3ea05793	0.31316814
175	0x3cdf4daa	0.027258713
176	0x3e5221c4	0.20520693
177	0x3e79f7a3	0.24410872
178	0x3e68db85	0.2273999
179	0x3dc45ec0	0.09588385
180	0xbca0b0d4	-0.019615568
181	0x3dcddda1	0.10052038
182	0x3e4ca550	0.19984937
183	0x3e8afac9	0.2714446
184	0x3ea2dc96	0.3180892
185	0x3e5ed1e3	0.21759753
186	0x3ea929b7	0.33039638
187	0x3e3db16e	0.18524715
188	0x3e6bb498	0.2301811
189	0x3e07fb29	0.13279404
190	0x3e911d95	0.28342882
191	0x3e9b0cc8	0.3028319
192	0x3e38e969	0.18057789
193	0x3ddc5747	0.10758834
194	0x3db02881	0.086014755
195	0x3df4a67e	0.11945818
196	0x3d319643	0.04335619
197	0x3d8afd1b	0.06786557
198	0x3ead78ad	0.3388113
199	0x3e754a82	0.23954204
200	0xbdce16a3	-0.10062911
201	0xbe3f0b43	-0.1865664
202	0xbcd0d9da	-0.025494505
203	0xbe41088f	-0.18850921
204	0x3e22a8fb	0.15884773
205	0xbd19ec60	-0.03757894
206	0xbe42c143	-0.19019036
207	0xbe208b0d	-0.15678044
208	0xbe1396b2	-0.14412954
209	0xbd7f8a53	-0.062387776
210	0xbe0f61aa	-0.140021
211	0x3dbc80f7	0.092042856
212	0x3e3f0af7	0.18656527
213	0xbdab91e0	-0.08377433
214	0x3e0db34d	0.13837929
215	0xbe28fbbf	-0.16502284
216	0xbe0d6370	-0.13807464
217	0xbe3adf6f	-0.18249296
218	0x3d1a4cba	0.03767083
219	0xbcd2c780	-0.025729895
220	0xbbb19100	-0.0054188967
221	0x3e444e65	0.1917053
222	0x3dd638e3	0.10460069
223	0xbd89b220	-0.06723428
224	0xbe275e83	-0.16344647

bias f4 [9]
0	0x3d889cb8	0.06670517
1	0xb8296292	-4.038454e-05
2	0x39515d08	0.0001996645
3	0xb890eb1a	-6.910246e-05
4	0x3e3d7fa2	0.1850572
5	0x39572329	0.00020517096
6	0xb875d9c3	-5.861536e-05
7	0x3961c3e7	0.00021530651
8	0xbe09d305	-0.13459404

weight f4 [18, 9, 5, 5]
0	0x3d81463d	0.06312225
1	0x3d267403	0.04063798
2	0x3db873f0	0.09006488
3	0x3cef9ede	0.029250558
4	0x3d32b63a	0.043630816
5	0x3cccf7c1	0.025020482
6	0x3d995e36	0.074886724
7	0x3d73ebab	0.059550922
8	0x3d555569	0.052083407
9	0x3dcfe16a	0.10150416
10	0xbc4bfddb	-0.012450661
11	0x3cac675f	0.021045385
12	0x3d91bd90	0.07116234
13	0x3d78b760	0.060721755
14	0x3c98c5d3	0.018649017
15	0x3d11dd00	0.035611153
16	0x3cabee35	0.02098761
17	0x3cf11e79	0.029433476
18	0xbc8b53bc	-0.017007701
19	0xbd08def6	-0.033415757
20	0xbc33a76a	-0.010965208
21	0x3d2e8c7b	0.04261444
22	0xbc912124	-0.017715998
23	0xbd87a42d	-0.06623111
24	0xbd33a6fb	-0.043860417
25	0x3ba9e2f1	0.005184524
26	0xbcd70a1d	-0.02624994
27	0x3c8a4c61	0.016882123
28	0x3e034870	0.12820601
29	0x3caf9702	0.02143431
30	0xbd31462c	-0.04327981
31	0xbb9ade89	-0.0047262353
32	0x3d865319	0.06558818
33	0x3d371f01	0.044707302
34	0x3d8e06d8	0.06934899
35	0xbd26409c	-0.04058896
36	0x3d530256	0.0515159
37	0x3d65da73	0.056116533
38	0x3c3e340a	0.011609087
39	0x3dc74131	0.09729231
40	0x3d3baa81	0.045816902
41	0x3ccc8b99	0.02496891
42	0x3d4bf7fa	0.049797036
43	0xbd8f4148	-0.06994873
44	0x3d27c685	0.040960807
45	0x3c275b06	0.010214573
46	0xbd9aff95	-0.0756828
47	0xbdbc4014	-0.091919094
48	0xbd8d8891	-0.069108136
49	0xbe246deb	-0.16057555
50	0x3da06376	0.07831471
51	0xbc913aa3	-0.017728155
52	0x3daf34ca	0.085549906
53	0x3bf8465d	0.0075767473
54	0x3c2ee4ee	0.010674698
55	0x3d98db76	0.07463734
56	0x3d1b7fcc	0.037963673
57	0x3ddd0cf0	0.10793483
58	0x3dbd1a43	0.09233525
59	0x3cd749c0	0.026280284
60	0xbd7d73bc	-0.06187795
61	0xbced12a9	-0.028939562
62	0x3dbc551e	0.09195922
63	0x3dad0b4e	0.08449422
64	0x3dd37d14	0.10326591
65	0xbba501c2	-0.00503561
66	0x3d6cf826	0.05785384
67	0x3d29121d	0.04127704
68	0xbc4b76dc	-0.012418475
69	0x3d2ce35e	0.04220902
70	0x3cc83868	0.02444096
71	0x3c923e67	0.017852021
72	0xbce8123e	-0.028329011
73	0xbd871107	-0.065950446
74	0xbdeb4fe9	-0.11489851
75	0x3d885a24	0.06657818
76	0x3ba1faf7	0.0049432474
77	0x3d45041e	0.04809963
78	0x3d9de4a2	0.07709624
79	0x3c9e56de	0.01932853
80	0x3c74d959	0.014944398
81	0xbc9a9b9b	-0.018873027
82	0x3d43172e	0.047629528
83	0x3de66e44	0.112515
84	0x3a335a62	0.0006841776
85	0xbd897dc2	-0.067134395
86	0x3d91a1ae	0.07110916
87	0x3d924f08	0.0714398
88	0x3d4fb077	0.0507054
89	0x3d8ab85c	0.06773445
90	0x3d955ab6	0.07292692
91	0x3c9bc766	0.019015979
92	0x3c560287	0.013062126
93	0xbce756d5	-0.028239647
94	0xbd3960b9	-0.045258258
95	0xbc4dcd7c	-0.012561198
96	0x3c702028	0.014656104
97	0x3b105b88	0.0022027213
98	0xbe20bfc5	-0.15698154
99	0xbdda12c3	-0.1064811
100	0x3d2f347a	0.042774655
101	0xbd00f325	-0.03148188
102	0x3d99a8cd	0.07502899
103	0xbd303315	-0.043017466
104	0xbcc13371	-0.0235841
105	0x3c8c5a0e	0.017132785
106	0xbce7f0fc	-0.028313152
107	0x3c908d2f	0.017645447
108	0xbd576486	-0.0525861
109	0x3da3f159	0.08005018
110	0xbc25ce2a	-0.010119954
111	0xbd19d64b	-0.03755788
112	0xbdb17653	-0.08665147
113	0x3d12d7ee	0.035850458
114	0xbbd9e072	-0.0066490704
115	0x3d036c20	0.032085538
116	0xbd4ae948	-0.04953888
117	0xbdb558d1	-0.08854831
118	0x3c87d38a	0.016580362
119	0xbcb868ab	-0.022510847
120	0xbd84008e	-0.06445418
121	0xbc5846b8	-0.013200454
122	0x3ab42684	0.0013744389
123	0x3d5c3689	0.053762946
124	0x3cfc3c59	0.030790495
125	0x3da95310	0.08267796
126	0xbc761549	-0.015019723
127	0xbac52ec6	-0.0015043847
128	0xbb389b7d	-0.002816885
129	0xbc564d3c	-0.013079938
130	0xbd0bf419	-0.034168337
131	0x3bb5f1e5	0.0055525177
132	0x3c08b3de	0.008343665
133	0x3d833632	0.06406821
134	0xbc23de65	-0.010001753
135	0x3ce43652	0.027857933
136	0x3d9ac6e3	0.07557466
137	0x3d6dcfd1	0.058059517
138	0xbd1ad829	-0.037803803
139	0x3d89a05c	0.06720039
140	0x3d99e719	0.075147815
141	0x3d6d63ce	0.05795651
142	0x3c7e8701	0.015535117
143	0xbd2b2c83	-0.041790497
144	0x3d706dcd	0.058698464
145	0xbd839d99	-0.06426544
146	0xbc891243	-0.01673234
147	0xbd2a437e	-0.04156827
148	0xbd0c72ec	-0.034289286
149	0xbdf7dff7	-0.12103265
150	0x3b9ed6d4	0.004847387
151	0x3d8f8131	0.07007063
152	0x3dbe7419	0.092994876
153	0x3e122a56	0.14273962
154	0x3dc57e51	0.096432336
155	0xbd47fdbb	-0.04882596
156	0x3bf0a02e	0.0073433137
157	0x3db48c19	0.08815784
158	0x3dc61069	0.09671099
159	0x3dd2c1db	0.10290881
160	0x3aca7a54	0.0015447834
161	0x3db0d586	0.08634476
162	0xbb9e3380	-0.0048279166
163	0xbcd10da3	-0.025519198
164	0x3de26a2f	0.11055409
165	0x3cf562f7	0.029954417
166	0x3d4a154a	0.04933671
167	0x3d67a196	0.056550585
168	0xbcbc3b3e	-0.022977468
169	0x3c5d1310	0.013493314
170	0xbdd264cd	-0.102731325
171	0xbdbff7eb	-0.093734585
172	0xbdae7927	-0.08519202
173	0xbdefd78c	-0.11711034
174	0xbd90a21d	-0.07062171
175	0x3cee236b	0.029069623
176	0x3d90f8bd	0.07078693
177	0x3c9ab574	0.018885352
178	0x3c1d5fcd	0.00960536
179	0x3dada203	0.08478167
180	0x3cee7b6e	0.02911159
181	0x3cf97ee0	0.030456007
182	0x3c5333df	0.012890785
183	0x3d954ede	0.07290433
184	0x3d85a4b4	0.06525555
185	0x3d105a56	0.0352424
186	0x3d001fc3	0.03128029
187	0xbcfaf3ad	-0.030633772
188	0x3cff6cbd	0.03117978
189	0x3dbc9b1f	0.092092745
190	0xbc892d4c	-0.016745232
191	0xbcd3f36a	-0.025872905
192	0xbccc2a8e	-0.024922635
193	0xbd9eca71	-0.077534564
194	0x3d7e6258	0.062105507
195	0x3c7742da	0.015091622
196	0xbc63acc3	-0.01389617
197	0x3cd6cbfa	0.02622031
198	0xbd6ff046	-0.058578752
199	0xbdf0b3e4	-0.117530614
200	0xbd68ae50	-0.056806862
201	0x3d3552c7	0.044268396
202	0xbd1bb194	-0.03801115
203	0xbcf7bab0	-0.030240387
204	0xbd619fff	-0.055084225
205	0xbd434836	-0.047676288
206	0x3d5bca03	0.05365945
207	0x3c923023	0.017845219
208	0xbd47be1f	-0.048765298
209	0xbd16b394	-0.036792353
210	0xbd7a5449	-0.061115537
211	0xbd47ac34	-0.04874821
212	0xbcda47f0	-0.02664563
213	0x3d0b7f65	0.03405704
214	0x3d78e694	0.06076677
215	0xbd85a8d5	-0.06526343
216	0x3d3a9f8b	0.04556231
217	0xbd268429	-0.04065338
218	0x3cdf9e3c	0.027297132
219	0xbc872796	-0.016498368
220	0x3d075403	0.033039104
221	0x3d43d396	0.047809206
222	0x3d1163af	0.035495456
223	0x3d4695bc	0.04848264
224	0x3d2e5052	0.04255707
225	0x3cb7f611	0.0224562
226	0xbd02fec7	-0.031981256
227	0x3d2387ac	0.03992431
228	0x3d88e582	0.066844
229	0x3df5846c	0.11988148
230	0x3d037ab0	0.032099426
231	0x3dc10cf8	0.09426302
232	0x3e1a6453	0.15077333
233	0x3df2d8d3	0.11857762
234	0x3da8d2cd	0.08243332
235	0xba638492	-0.00086791173
236	0x3da5c172	0.080935374
237	0x3d90080e	0.07032786
238	0x3d80a4f9	0.06281466
239	0x3dd45c7b	0.10369202
240	0xbcb2189e	-0.021740254
241	0x3dcc96d5	0.099897064
242	0x3c77b668	0.015119173
243	0x3d756120	0.05990708
244	0x3bdec080	0.00679785
245	0x3d036eeb	0.0320882
246	0x3d0e9f86	0.034820102
247	0x3da6ff21	0.08154131
248	0xbc47380a	-0.012159357
249	0x3c2b4090	0.010452405
250	0x3d10963e	0.035299532
251	0x3c6092b3	0.013706851
252	0x3df9c1a4	0.12195137
253	0x3e17b402	0.14814761
254	0x3da3cb7d	0.07997797
255	0xbd089a3b	-0.03335021

bias f4 [18]
0	0xbc801be4	-0.0156383
1	0x3c86f4e2	0.016474191
2	0x3cbc06f0	0.022952527
3	0x38840e7f	6.2969506e-05
4	0xbc4dd06a	-0.012561897
5	0x3cf9692c	0.030445658
6	0x3c974ed5	0.018470207
7	0x3d38fe8d	0.045164634
8	0xbd86dd5c	-0.0658519
9	0x3d808742	0.062757984
10	0x3bff8f09	0.0077990335
11	0x3ac053b1	0.001467338
12	0x3c166fe5	0.009181951
13	0xbca1b950	-0.019741684
14	0x3c1a36bc	0.009412464
15	0xbc19cc5b	-0.009387101
16	0x3ce64bb4	0.02811227
17	0xbd6018b1	-0.054711048

weight f4 [30, 144]
0	0xbe36e61a	-0.17861214
1	0xbdbe317b	-0.092867814
2	0x3c1aadb0	0.009440824
3	0x3d20aae9	0.039225493
4	0xbd362ceb	-0.04447643
5	0x3d096ea8	0.033552796
6	0x3cb8e07c	0.02256798
7	0xbd2429f8	-0.040079087
8	0xbe36150a	-0.17781463
9	0xbda36e29	-0.07979996
10	0x3b9c2e75	0.0047662803
11	0x3d505fb4	0.05087252
12	0x3d376c04	0.044780746
13	0x3ce2e7ce	0.027698424
14	0x3ba112e9	0.0049155843
15	0x3bab7f5f	0.0052336897
16	0xbd280dc4	-0.041028753
17	0xbda878e9	-0.08226187
18	0x3d9a1ae9	0.07524664
19	0x3d27d738	0.040976733
20	0xbcbda610	-0.023150474
21	0x3da2aa04	0.07942584
22	0xbd97f125	-0.074190415
23	0x3b8fbb16	0.004386316
24	0xbe05f1ad	-0.13080473
25	0x3d71159a	0.05885849
26	0x3e3201d7	0.17383514
27	0x3d2db674	0.04241033
28	0x3ccf1962	0.025280658
29	0x3d8bb4e8	0.068216145
30	0x3d7f0206	0.06225779
31	0xbd5ab5e0	-0.053396106
32	0xbddfa7b2	-0.10920657
33	0xbd888389	-0.06665713
34	0x3e00df13	0.12585096
35	0x3e0f228e	0.13978025
36	0xbcd973dc	-0.026544504
37	0x3da49e0f	0.0803796
38	0x3c25279f	0.010080247
39	0xbd596d4b	-0.053082746
40	0xbd08f646	-0.03343799
41	0xbe1dd94f	-0.15414928
42	0x3c996f81	0.018729927
43	0xbb10d85e	-0.002210162
44	0x3dc75909	0.09733779
45	0x3e0be68f	0.1366217
46	0x3c9d46d8	0.01919882
47	0x3c2957e2	0.010335894
48	0xbe4f0b11	-0.20219065
49	0xbd2e1c63	-0.04250754
50	0x3d11c928	0.03559223
51	0x3dee16ab	0.11625417
52	0x3d007d98	0.031369776
53	0x3d079650	0.033102334
54	0xbce2ebdc	-0.027700357
55	0x3c2fbb7e	0.010725854
56	0xbcc40582	-0.023928408
57	0xbd3df406	-0.046375297
58	0x3de151c5	0.110019244
59	0x3db4b0cb	0.08822783
60	0xbdb2b058	-0.08725041
61	0xbd8d3054	-0.068939835
62	0x3e34f57f	0.17671774
63	0xbdae03d9	-0.08496828
64	0xbde17b57	-0.11009853
65	0xbd9c5e24	-0.076351434
66	0x3e1b04a7	0.15138493
67	0x3d491c8b	0.049099486
68	0xbd251848	-0.04030636
69	0x3c85af73	0.016319012
70	0x3d90aa17	0.07063692
71	0xbd2d5956	-0.042321526
72	0xbe098f98	-0.13433683
73	0xbe05f712	-0.13082531
74	0x3d7b700e	0.06138616
75	0xbbe4fe83	-0.006988348
76	0xbc63a39b	-0.013893987
77	0x3c103f9d	0.008804229
78	0x3b236a7a	0.002493529
79	0x3d5e06cb	0.054205697
80	0xbe2492d0	-0.1607163
81	0x3d0ef91d	0.03490554
82	0x3e0cf59c	0.13765568
83	0x3ddf3e49	0.10900552
84	0x3d91e53f	0.07123803
85	0xbd17ff7d	-0.037108887
86	0x3de34906	0.110979125
87	0x3e0b43c4	0.1360007
88	0xbdffbcff	-0.1248722
89	0xbc833aad	-0.01601919
90	0x3df18d3d	0.11794517
91	0x3d07eea8	0.033186585
92	0x3c80b1e7	0.01570983
93	0x3d879eb6	0.066220686
94	0xbcb7833f	-0.02240145
95	0x3cf0f39a	0.029413033
96	0xbe053b57	-0.13010918
97	0xbda0f7bb	-0.07859751
98	0x3c9ff6ab	0.0195268
99	0x3da60444	0.08106282
100	0x3c1293bf	0.008946358
101	0x3d8c2de9	0.06844694
102	0xbcc9fbe5	-0.024656245
103	0xbdc4b6b2	-0.09605159
104	0xbe554184	-0.20825773
105	0xbe035c34	-0.12828141
106	0xbd63d8da	-0.055626728
107	0x3d9e2964	0.077227384
108	0xbcb4bb94	-0.0220621
109	0xbcb90838	-0.022586927
110	0xbd1976f2	-0.03746695
111	0x3d699bb8	0.05703327
112	0xbd9b645a	-0.075875
113	0xbd3d4ccd	-0.04621582
114	0x3c10e85c	0.008844461
115	0x3c8cf77d	0.017207855
116	0x3d77e022	0.060516484
117	0xbbd9e770	-0.006649904
118	0xbcbb8bb5	-0.022893766
119	0xbe0bb2de	-0.13642451
120	0xbe160a26	-0.14652309
121	0xbd4550b7	-0.04817268
122	0x3ceae634	0.028674223
123	0xbcf6579d	-0.030071074
124	0xbdc1a476	-0.094551966
125	0x3dd39eb3	0.10333004
126	0xbd87e93e	-0.06636284
127	0xbdf061f9	-0.11737437
128	0xbe1497c7	-0.14511023
129	0xbe2d8fc8	-0.1694938
130	0x3d28c884	0.04120685
131	0x3ba9c3fb	0.0051808334
132	0x3d25626e	0.040377073
133	0x3d159db4	0.03652735
134	0xbc98d070	-0.018654078
135	0x3d208452	0.03918869
136	0xbe3476c0	-0.17623425
137	0xbe064a6e	-0.1311433
138	0x3d4e4ac5	0.050364275
139	0x3de49995	0.11162106
140	0x3aaf518d	0.0013375744
141	0x3ce916c3	0.028453236
142	0x3cdbc21d	0.026825959
143	0xbd13a6a5	-0.036047596
144	0xbda43752	-0.08018364
145	0x3cf9f3cd	0.030511761
146	0xbcb209f5	-0.021733264
147	0xbd72ee76	-0.059309445
148	0xbd9b7fd3	-0.0759274
149	0xbd5ae113	-0.053437304
150	0x3cdf03ab	0.027223429
151	0xbcb4db9b	-0.022077372
152	0xbd3d2394	-0.046176508
153	0xbd4944de	-0.049137942
154	0x3d8b1810	0.06791699
155	0xbd246e9f	-0.04014456
156	0x3d250157	0.04028448
157	0x3ab3384b	0.0013673393
158	0x3d6f7ce4	0.058468714
159	0x3cc04f0e	0.023475196
160	0x3d0128b7	0.03153297
161	0xbbd2a8e1	-0.0064288233
162	0xbd25cc14	-0.040477827
163	0xbd4b9c1a	-0.049709417
164	0xbcce5843	-0.02518857
165	0xbd35036c	-0.044192716
166	0xbdbcc13f	-0.09216546
167	0xbdbc2fc8	-0.09188801
168	0x3c7189ad	0.014742297
169	0x3d75df4d	0.06002741
170	0xbd036782	-0.032081135
171	0x3caad37d	0.020852799
172	0x3c45ddba	0.0120767895
173	0xbd01a150	-0.03164798
174	0xbca59a55	-0.020215193
175	0xbd4918a1	-0.049095754
176	0xbd8ed813	-0.06974807
177	0xbd87f20d	-0.066379644
178	0x3cb554cd	0.022135163
179	0x3d1267d4	0.03574355
180	0xbda17f71	-0.07885636
181	0x3c8cb62c	0.01717671
182	0xbdab9104	-0.08377269
183	0xbd8301dd	-0.0639684
184	0x3d885443	0.06656697
185	0xbd20aa34	-0.03922482
186	0xbcac17b4	-0.021007396
187	0xbd4bdc04	-0.04977037
188	0x3a27fbf1	0.00064080866
189	0xbd5c8980	-0.053842068
190	0xbd9c30f3	-0.07626524
191	0xbd229def	-0.0397014
192	0x3cd2ba79	0.025723683
193	0x3ca3ed55	0.02001063
194	0xbd86ba6c	-0.06578526
195	0xbcf04779	-0.029330956
196	0xbc27abe6	-0.010233855
197	0xbd6b2983	-0.057412636
198	0xbc84d6cf	-0.01621571
199	0xbd9540fd	-0.07287786
200	0x3cebc915	0.028782407
201	0xbda07b3b	-0.07836004
202	0x3d0c3c7d	0.034237374
203	0xbc05db94	-0.008170027
204	0x3d94142a	0.072304085
205	0x3c76c2b0	0.015061066
206	0xbd9c575f	-0.07633852
207	0xbbbf7d9b	-0.0058438308
208	0x3c6fe7e9	0.014642694
209	0xbbaed975	-0.0053359815
210	0x3d97e0dc	0.074159354
211	0xbd24cd7b	-0.040235024
212	0x3c82dec7	0.01597537
213	0x3cdaac81	0.026693584
214	0x3d01cc56	0.03168901
215	0xbdb0fd47	-0.08642059
216	0x3d26716b	0.040635508
217	0x3cb93c08	0.022611633
218	0x3c6c3133	0.014416027
219	0x3d906328	0.070501626
220	0x3cfc15ba	0.030772079
221	0xbd94f9f0	-0.07274234
222	0xbd9a9ccc	-0.07549438
223	0x3cf75bd7	0.03019516
224	0x3d8e7b53	0.06957116
225	0xbd84fc7e	-0.064934716
226	0xbd680659	-0.05664668
227	0xba857ff4	-0.0010185228
228	0x3d3acf82	0.04560805
229	0xbdaa8176	-0.08325474
230	0xbc807d2a	-0.015684683
231	0xbd3a9bfb	-0.04555891
232	0x3cfa82ce	0.03057995
233	0x3d6a0a3c	0.057138667
234	0x3cf7a240	0.030228734
235	0xbdab111c	-0.08352873
236	0x3d64d923	0.05587114
237	0xbb651c31	-0.003495943
238	0xbd161176	-0.036637746
239	0xbcb89603	-0.022532469
240	0xbc721a99	-0.014776849
241	0xbd558a6c	-0.052133963
242	0xbce22e57	-0.027609987
243	0x3d6abcd9	0.057309005
244	0xbd356356	-0.044284187
245	0x3d856940	0.065142155
246	0x3d89c688	0.0672732
247	0x3d21b837	0.03948232
248	0x3d793ade	0.060847156
249	0x3d4abcaf	0.04949635
250	0x3cb697b7	0.02228914
251	0x3cfccb6c	0.030858718
252	0xbd6f5db9	-0.05843899
253	0x3d83d2c1	0.064366825
254	0xbc60accb	-0.013713072
255	0xbd2d1b72	-0.042262502

bias f4 [30]
0	0x3db623da	0.08893557
1	0xbdba0cc8	-0.09084469
2	0xbd855ecb	-0.06512221
3	0x3cdb2794	0.02675227
4	0x3d27a333	0.040927123
5	0x3d59b710	0.053153098
6	0x3dbc9cfe	0.092096314
7	0xbd5e9bee	-0.054347925
8	0x3dac3aa3	0.084096216
9	0x3d65fa9c	0.056147203
10	0xbc002eb5	-0.007823636
11	0xbd92a2c4	-0.07159951
12	0xbdb08d5c	-0.08620712
13	0x3ce6bc80	0.028166056
14	0x3d479669	0.048727427
15	0xbc86605b	-0.016403368
16	0xbdbe8d3b	-0.09304281
17	0xbd19fb33	-0.037593078
18	0xbbb7489a	-0.0055933716
19	0xbd9649f4	-0.07338324
20	0x3cff08d3	0.031132137
21	0xbd9a053b	-0.07520529
22	0x3d3e9b0f	0.046534594
23	0xb8d8656e	-0.000103185754
24	0x3cf1b513	0.029505288
25	0x3ca9246a	0.020647246
26	0x3d3b814d	0.045777608
27	0x3d730031	0.059326354
28	0xbdb96c20	-0.09053826
29	0xbda463a0	-0.080268145

weight f4 [4, 30]
0	0xbdf06f2f	-0.117399566
1	0xbd94fb3e	-0.07274483
2	0x3e0478c3	0.12936692
3	0xbe0c482b	-0.13699405
4	0xbca43d14	-0.020048656
5	0xba6b597b	-0.0008977872
6	0xbccbe8e7	-0.02489133
7	0xbe7c91c5	-0.24664982
8	0xbe431773	-0.19051914
9	0x3dc2dd19	0.09514827
10	0xbeb02338	-0.3440187
11	0xbd85266f	-0.06501471
12	0x3e0ed31f	0.13947724
13	0xbd2969e2	-0.041360743
14	0x3e0ae570	0.13564086
15	0x3de8166f	0.11332404
16	0x3dcdecff	0.10054969
17	0x3e32c368	0.17457354
18	0xbdea7d64	-0.114496976
19	0x3db46451	0.08808196
20	0xbe640bd2	-0.22270134
21	0xbe0fb1c1	-0.14032651
22	0x3c33b7f5	0.010969152
23	0xbe2ee704	-0.17080313
24	0x3d955bce	0.07292901
25	0xbdcd21e7	-0.10016232
26	0xbd85bfe7	-0.06530743
27	0x3e4021e0	0.18762922
28	0xbdcd050a	-0.10010727
29	0xbda34edc	-0.079740256
30	0x3dfc1da8	0.12310344
31	0xbd3ab68c	-0.045584247
32	0x3d9484e4	0.072519094
33	0x3e3084c0	0.1723814
34	0x3e27ed71	0.1639917
35	0xbd11f2e5	-0.035632033
36	0xbd89eedf	-0.06735014
37	0xbe0db371	-0.13837983
38	0xbdc9c857	-0.09852665
39	0x3bff73ef	0.007795803
40	0x3da8688b	0.08223065
41	0x3e7bf566	0.24605331
42	0x3dfd81eb	0.123782955
43	0x3d729fd4	0.059234455
44	0x3d8f21be	0.06988858
45	0xbe82fd71	-0.25583985
46	0xbd584438	-0.052799433
47	0x3e139a1a	0.14414254
48	0xbd38f261	-0.045153026
49	0xbd72ec8f	-0.05930763
50	0x3ca46960	0.020069778
51	0xbd9e8ebb	-0.077420674
52	0xbda7e8df	-0.081987135
53	0xbd86c018	-0.06579608
54	0x3e1ec899	0.1550621
55	0xbe53a2a4	-0.20667511
56	0xbe818f2a	-0.25304538
57	0xbe63eb72	-0.22257784
58	0x3dc5c9c2	0.09657623
59	0x3ddf4ad4	0.10902944
60	0x3e04acff	0.12956618
61	0xbd88fd8c	-0.06688985
62	0x3e05309a	0.13006821
63	0xbd83b4da	-0.06430979
64	0x3d32b4c5	0.043629427
65	0xbd9f22bf	-0.07770299
66	0x3de50bfe	0.11183928
67	0x3e6cf68c	0.23140925
68	0x3e59ef28	0.21282637
69	0xbd771b72	-0.06032891
70	0xbd921355	-0.071325935
71	0xbe6bfb61	-0.23045112
72	0x3cf0261e	0.02931505
73	0xbe188cc0	-0.14897442
74	0x3cabf8bf	0.020992635
75	0x3e364572	0.17799929
76	0xbda656c9	-0.08122022
77	0xbd320bab	-0.04346816
78	0x3e040637	0.12892996
79	0xbd425a75	-0.047449548
80	0x3e2d850f	0.16945289
81	0xbe443bb4	-0.191634
82	0x3d284dd3	0.041089844
83	0x3e3c11ef	0.18366216
84	0xbe08859c	-0.13332218
85	0x3e6d75f4	0.23189527
86	0xbdebe518	-0.115183055
87	0xbe15faf5	-0.14646514
88	0xbe262343	-0.16224389
89	0xbe2dc780	-0.16970634
90	0xbdd00920	-0.101579905
91	0x3d8c0715	0.06837288
92	0x3b34aaca	0.0027567619
93	0x3e562396	0.20912012
94	0x3d6cb158	0.057786316
95	0x3df8fe60	0.12157893
96	0x3cee9148	0.02912201
97	0xbe3a8eec	-0.18218583
98	0xbd18d485	-0.03731205
99	0x3df6d774	0.12052813
100	0xbe8b7f45	-0.27245536
101	0xbdebf184	-0.11520675
102	0xbda0cc2c	-0.07851443
103	0xbe27320f	-0.1632769
104	0xbe655003	-0.22393803
105	0xbe1791c1	-0.14801694
106	0xbd8df6f5	-0.06931869
107	0xbd2f8162	-0.042848
108	0xbda34cfc	-0.07973668
109	0x3e0d2c37	0.13786398
110	0x3ab1774d	0.0013539583
111	0xbe1ca2af	-0.15296434
112	0x3e49d41b	0.19709818
113	0x3e3d66e0	0.18496275
114	0x3e06d956	0.13168845
115	0x3dfa2719	0.122144885
116	0x3d86cd23	0.065820955
117	0xbe0918bf	-0.13388346
118	0xbdafc6f1	-0.08582867
119	0xbce07af8	-0.027402386

bias f4 [4]
0	0xbdd994e7	-0.10624104
1	0x3db5b2d1	0.08871997
2	0xbe0295d1	-0.12752463
3	0x3e2c532e	0.16828606
